PyTorch Deep Learning/Intro and NN/2.model.pth (torch_old, 23818 bytes, 6 tensors)

fc1.weight f4 [100, 4]
00000000: 0a4a 5dbd 3573 933e f7b8 6d3e c83b c43e
00000010: 10aa a13e 8ff8 26be ad19 a5be 4bcb a4bc
00000020: 69ee 3dbe e55f 2e3d 2111 b13e 6e08 a8be
00000030: 809b 20be 5048 093d a6be c7be a62e c8be
00000040: d9f8 86bc 2032 a53d 63db a1be b726 40be
00000050: d6ac 3b3e 1a36 103f 858d 02bf 4d43 df3e
00000060: e861 7abe f08d 3d3d 68d7 d9bd 825f bcbe
00000070: b896 a2be a0f2 e43d 6c89 093e b808 40be
00000080: 3497 7cbe 2014 afbe 381d f5be 8057 41be
00000090: 083f b03e 8593 98be ad46 173e b754 cd3e
000000a0: f07b c1be 14c6 073e f8ae 26be 9677 b03e
000000b0: f678 89be 8e56 ddbe 0817 89bd f876 c6be
000000c0: a4ab b2bd dc63 723e 9b2b cd3d 86b9 d73e
000000d0: 2a34 d5be f8d3 573e 48e8 c23d d03e 02bd
000000e0: 2846 c93d 5c1c 7cbe 4abe c5be 5c40 07be
000000f0: 4869 82bd a084 03be 9cda 033e 401e 07bc
00000100: e35c 003d 63c0 68be 2aee 363e 80fe 093f
00000110: a0ad dd3c 00dc 63bd e005 1fbe 2694 983e
00000120: 3ff5 de3e 4eaf bc3b 535c 9ebe 4d8f febe
00000130: c6cb 0e3f 5737 8e3e edad 14bf 06bf 72bc
00000140: f209 c83d cb11 99ba 49a1 ab3c 7d45 b4be
00000150: f848 aebe 0409 ba3e 502d b2bd 5899 9fbe
00000160: 026d 4e3e 541c d13e 5419 91be 64c7 37be
00000170: 78d5 983c 86e6 ce3e 66f3 083f ffa6 993e
00000180: b065 aebd a0f1 e8be 506a c6bd 6477 cc3e
00000190: 3bd1 b03e 33a1 89bd c31b 94be b603 b13e
000001a0: 5a0e 7c3e a5d5 e43e 3a93 81be 2a34 f0be
000001b0: ab1b 7b3e 19e1 ee3e 6c7b 13be 1bdd 893e
000001c0: 3d8c 063e 6d26 6abe 3c7f 313e 82f8 debe
000001d0: b332 4e3e ea3e 9e3e 9fb2 94be fd0a 97bd
000001e0: 49e7 903e 2ef3 3fbe 74c6 763e 9921 383e
000001f0: 3aad 213e 87a5 003f aef3 10be 8aaa f43d
00000200: 5e66 333e 0f5c 973d 9cbe d0be c66f 2f3b
00000210: f830 b23d d201 9abe ccac b7be 4087 39bd
00000220: e891 9c3e 1613 4d3e e9ce 4bbd ea03 33be
00000230: 249b c0bd bcd5 fb3e 582c 92bd 072c 853e
00000240: 840a 27be d820 d7be 9044 343d 8ef3 b2be
00000250: e501 07bd 98ca f93e 585f de3d 1efe c83e
00000260: 80c7 eb3b e832 93be 56fb 83be a08b b93e
00000270: 6807 c93d 78b1 c6be e8b1 8d3d 00a0 37bc
00000280: a423 30be 92cd dabe 28c8 a83e 7c02 2dbe
00000290: 94a6 93bd aa8e b7be 1684 213e e41c 653e
000002a0: 0ed3 c13e eb80 bfbe feee 053f ba23 ac3e
000002b0: e7d6 9f3e fbb5 003f 287b ccbe a9ff 9cbe
000002c0: 25e1 8fbe 5fe9 413e bc44 093e 5992 803e
000002d0: c25b 373e 1732 da3d b19a 483e d40c d03e
000002e0: f40f 56be e258 e4be 30b5 403e 109a 12bd
000002f0: 2054 abbe 3431 9e3e 9213 8dbe de0f d3be
00000300: 96c9 bc3e 7925 a2be a6a3 d13e 5506 3ebe
00000310: 7f74 f63e 6949 c7be 9c87 e5bd 55f5 f6be
00000320: a0ae 2dbd 20eb 08be 9cd5 cfbe 9ce2 483e
00000330: b015 21bd 6291 86be 683e 033e 0cc5 07be
00000340: 4192 ff3e f955 913e 3b67 bd3e 8a44 043e
00000350: a9fb d53e 1bbb a13d b94f e8be a2eb c9be
00000360: 3146 44bd afc0 d33e 66b2 9dbd f3ee 793d
00000370: 15be 9b3d 6c68 493e cb24 2abd 094c 46bd
00000380: 780c f9be 484c a03d 349e ff3e 94c6 a1be
00000390: e9ab fd3d ce7e fbbb 2d42 073f 5eb4 eebe
000003a0: ba94 5e3e d423 37be 0da2 e6be 738d a9bc
000003b0: b17f afbd 0f03 b93e 80d3 cc3e ba8c b4be
000003c0: f7fb 2f3e 59c7 afbe 2a82 993e 978b 0abe
000003d0: 5849 c33e af2d 02be 1144 013f c66c fa3e
000003e0: e8a5 19be eb9e a13e b552 7a3d 733f 8e3e
000003f0: ce1f d63d 3156 45be 0ca1 cd3e 09e1 783d
-0.054025687 0.28798833 0.2321509 0.3832686 0.3157506 -0.16305755 -0.32246152 -0.020116469
-0.18547978 0.04257192 0.3458338 -0.3281893 -0.15684319 0.03351623 -0.3901264 -0.3909809
-0.016476082 0.08066201 -0.3161269 -0.18764769 0.1832765 0.5633255 -0.5099719 0.43606034
-0.24451411 0.04627794 -0.106367886 -0.36791617 -0.31755614 0.111790895 0.13431329 -0.18753326
-0.24667054 -0.34195042 -0.47873855 -0.18881035 0.3442309 -0.29800048 0.14773054 0.40103695
-0.3778987 0.13259155 -0.16277683 0.34466237 -0.26850098 -0.43230098 -0.06693846 -0.3876264
-0.08724144 0.23670906 0.10018083 0.4213373 -0.4164136 0.21076953 0.095169604 -0.031798184
0.09827834 -0.24620193 -0.38621742 -0.13208145 -0.06367737 -0.12843561 0.12876362 -0.008246958
0.031338584 -0.2272964 0.1786429 0.5390396 0.02706033 -0.05562973 -0.15529585 0.29800528
0.43546483 0.0057582026 -0.30929813 -0.49718705 0.55779684 0.27776596 -0.5807789 -0.014816051
0.09767522 -0.0011678276 0.02095093 -0.35209265 -0.34040046 0.36335003 -0.08700049 -0.3117168
0.2015877 0.40841925 -0.28339636 -0.17947155 0.018656477 0.4041025 0.53496397 0.3001022
-0.08515489 -0.45496845 -0.09688246 0.39934838 0.3453463 -0.067201994 -0.2892743 0.34573144
0.2461485 0.44694248 -0.25307637 -0.46914798 0.24522273 0.4665611 -0.1440255 0.26926503
0.13139434 -0.22866221 0.17333692 -0.4354897 0.20136528 0.30907375 -0.29042527 -0.07375143
0.28301457 -0.1874511 0.24099141 0.17981566 0.15788737 0.50252575 -0.14155456 0.1194659
0.17519519 0.07390606 -0.40770423 0.0026769503 0.08700746 -0.30079514 -0.3587402 -0.045295
0.30580068 0.20026812 -0.04975787 -0.17481962 -0.09404591 0.49186504 -0.07137364 0.26010153
-0.16312605 -0.42017245 0.0440107 -0.34951442 -0.03296079 0.4878738 0.10858029 0.39256376
0.007195413 -0.28749776 -0.25777692 0.36239338 0.09815866 -0.38807273 0.069186985 -0.011207581
-0.17201096 -0.42734963 0.32965207 -0.16895479 -0.07209507 -0.35851032 0.15773043 0.22374302
0.37856334 -0.37403044 0.523178 0.33621007 0.31218645 0.5027768 -0.3993771 -0.30663803
-0.2810146 0.1893668 0.13405126 0.25111654 0.17906097 0.10654085 0.1959026 0.40634787
-0.20904523 -0.44599062 0.18819118 -0.035791457 -0.3346262 0.30896914 -0.27553993 -0.41223043
0.36872548 -0.31669214 0.40945166 -0.18557103 0.48135754 -0.38923195 -0.11207506 -0.48234048
-0.042402864 -0.13370943 -0.4059266 0.19617695 -0.039327323 -0.26282793 0.12816775 -0.13258761
0.4991627 0.28385904 0.3699282 0.1291677 0.41793564 0.07897016 -0.45373324 -0.39437586
-0.047918502 0.41357943 -0.077000424 0.061018895 0.07604615 0.1966874 -0.041538995 -0.048412357
-0.48642325 0.078270495 0.49925387 -0.31596816 0.12386305 -0.0076750284 0.5283535 -0.46621984
0.21736422 -0.17884761 -0.4504551 -0.020697331 -0.08569277 0.36135146 0.40005112 -0.35263616
0.1718596 -0.34331778 0.2998212 -0.13529812 0.38141894 -0.1271274 0.50494486 0.48911113
-0.15004694 0.31566557 0.06111403 0.27782783 0.10455285 -0.1927116 0.40161932 0.060761485

fc1.bias f4 [100]
00000000: 85a2 9f3e 7bf8 f0bd 7cbb e23e 808e cd3e
00000010: 5d5a 7f3e b338 e6be c0c7 01bc 5c97 0ebe
00000020: bcda a03e a587 763d 9206 8dbe f0ad 3f3e
00000030: 6457 e1bd 0814 a8bd f42e 58be f813 17be
00000040: faa5 5d3e a806 e4bd f1db 673e 1bf5 99be
00000050: 2cfe 8c3e 90e6 b43e c7a2 aebe c8b9 123e
00000060: b250 bbbe 4c3d f0be 4c53 a2be c070 1dbe
00000070: 2713 b63d ad55 9abe a956 fcbe 1418 e6be
00000080: 1d13 fcbe b01b 323d 7703 e13e 99c8 e33e
00000090: 282a 19be 8e8c 98be 0008 07ba 1019 51be
000000a0: 9e36 aa3e 307f e23d 604b ca3e 5d1a 37bd
000000b0: ea94 88bd 00c1 df3e 64db 7a3e 62b1 d03e
000000c0: 776f bb3c adf0 593d 2805 52be 6ac0 b1be
000000d0: d68c b13e 07f0 a9be 6232 b7be 5172 b5be
000000e0: 7e5b 9dbe d08d c6be 1db7 223e 7465 bb3c
000000f0: 7fc2 dabd 78ec cfbe f7ba ba3b 5e11 c6be
00000100: 4069 303d 62c5 86be ff00 9a3a 3044 3e3e
00000110: 0ff2 e2be 53bc 60bd 0048 74ba be46 9ebe
00000120: 5442 9c3e fbf9 bc3e 2940 b0be 48a4 6e3e
00000130: eda5 b43e 12ef 98be 3727 c03d a8a0 30be
00000140: 4725 923e fa92 5f3a c1b4 de3e 8790 0e3e
00000150: 4c3f 95be c463 86be 2529 103e 5956 7cbd
00000160: 5eef 6f3e 4804 5dbe c462 2f3e 40a3 a9bd
00000170: cf1d f03c 3d6e cd3d 270e 2fbd e15e 64bd
00000180: 9718 a93e 7870 df3e dbf6 9bbd 30ae 8dbe
0.3117868 -0.11766144 0.44283664 0.4014778 0.24936815 -0.44965133 -0.007921159 -0.13924927
0.3141688 0.060187954 -0.27544075 0.18718696 -0.110029966 -0.08206946 -0.21111661 -0.14753711
0.21645346 -0.11134082 0.22642495 -0.30069813 0.27537668 0.35332155 -0.34108564 0.14328682
-0.36585003 -0.46921766 -0.31704175 -0.15375042 0.08890372 -0.3014349 -0.49284866 -0.44940245
-0.49233332 0.043483436 0.43947956 0.4448898 -0.14957488 -0.29794735 -0.00051510334 -0.20419717
0.33244795 0.11059415 0.39510632 -0.044702876 -0.06669028 0.43701935 0.24497753 0.40760332
0.022880299 0.053208042 -0.2050978 -0.34717113 0.34677762 -0.3319094 -0.35780627 -0.3543878
-0.30733865 -0.3878007 0.15890165 0.022875525 -0.106816284 -0.406101 0.0056985575 -0.38685125
0.043069124 -0.26322466 0.0011749564 0.18580699 -0.443253 -0.0548671 -0.000931859 -0.30913347
0.30519354 0.3690947 -0.3442395 0.23304856 0.3528284 -0.29869896 0.0938248 -0.17248785
0.28544065 0.0008528676 0.4349728 0.1392232 -0.29149854 -0.2624799 0.14078195 -0.061605785
0.23431155 -0.21583664 0.1712752 -0.082830906 0.029311089 0.10030792 -0.042738106 -0.055754546
0.33026573 0.43640494 -0.07615443 -0.27671957

fc2.weight f4 [50, 100]
00000000: cdf8 40bd dfc0 cabd 40de d8bc 004f 933b
00000010: f0f3 c6bd 00da bbba 0a5e 38bd 40f8 913c
00000020: 00c3 ad3c 5a05 bdbd 1bbb a9bd 777b 4dbd
00000030: 4081 873a 11e5 bb3d 9429 19bd 7193 9b3d
00000040: 192d 8c3d d8fb 53bc 8252 453d 4653 19bd
00000050: 7cd2 0bbd 338f ae3d b263 6c3d 1338 52bd
00000060: c676 0f3d 9808 9dbd 8ef4 033d ad42 8fbd
00000070: 85ad 90bd 840a e83c 547c e7bc 5d59 6ebd
00000080: ec30 aa3c 30b8 76bd dc30 09bd 6d9b 5abd
00000090: b681 503d f726 67bd 2a0d 0abd e663 6c3d
000000a0: 5075 e0bb c033 773c 2c9a a0bc 78ea ecbc
000000b0: e8bd a6bd c46e dd3c fbb9 b1bd 4e92 063d
000000c0: 3dc2 42bd f2b6 7c3d 4078 2a3c d0fd 5bbd
000000d0: 30e1 b5bd cea0 8fbd c725 893d 9328 b8bd
000000e0: 2804 d6bc 4e1c 8fbd 116c b13d 78ea cfbc
000000f0: 0d4b 33bd 2e89 6e3d 18ab 073c b293 593d
00000100: c998 af3d 8032 adbd 000f f0bc 60b4 033b
00000110: 2ad9 63bd 6854 8cbd 0081 fa3b 103a 223c
00000120: ba48 043d 3ddd cbbd 4e5f a5bd 4c3f fa3c
00000130: f2c9 ccbd c0fc bb3a 00dc 103c 86b5 763d
00000140: a88c 083c abdb c9bd 36f4 a7bd 5657 083d
00000150: 3848 cebc bae9 3fbd d4d1 f3bc 000b b8bc
00000160: 35e1 913d 8c05 e13c 27e8 aa3d 8793 a03d
00000170: 5062 773c 30f0 2b3c fffc bb3d 48a2 a3bc
00000180: 4923 c23d 40ef e2bc 441f ea3c 51fa 833d
00000190: 5ff8 b33d 8a41 14bd 9aa3 5bbd 48c6 a0bc
000001a0: 14a8 f63c f650 91bd c2fb 82bd 7037 bbbd
000001b0: 034f 983d 74da f5bc f086 3abd 0f3f 9f3d
000001c0: 305b a0bb a001 7bbd ad94 67bd 8a7d 77bd
000001d0: 9aff 5abd 30f0 54bc 6755 8b3d aa9c 533d
000001e0: 00d8 c739 fdb0 4ebd f0c4 51bd 8ad6 4d3d
000001f0: 3739 bebd b03e 5e3c 8677 a0bd da02 473d
00000200: c466 e03c b1e9 903d bd62 3bbd a122 c43d
00000210: f8fc 943c caf0 bebd 939d 98bd e098 b0bb
00000220: 14b0 f03c ca77 17bd 31e0 b63d c3ba 64bd
00000230: 600a 6e3b b22c 193d 009a f93a b8e3 adbc
00000240: ed9f 9c3d b054 a0bb 9d81 963d d6e2 013d
00000250: 8ee2 1b3d 2935 ad3d 5a35 533d a164 863d
00000260: b6d7 303d ed17 69bd c88b 93bc e34b 30bd
00000270: 7475 0abd fe2e 4b3d 2da2 3fbd d269 3a3d
00000280: 7c56 fd3c 283c a3bc 5aa6 44bd 60a4 d93b
00000290: ba1f 48bd fd5c 93bd da36 77bd cf0c c8bd
000002a0: bd77 a1bd 5368 30bd 64be d43c 2919 a93d
000002b0: 9dfd a73d 58a2 a9bc 3621 113d 80bc b1bb
000002c0: de11 2f3d 60d8 3ebd 07ba 31bd 37bb 41bd
000002d0: 1d9f c6bd d32a a3bd 54af b9bc 9aad 123d
000002e0: d472 8cbc 981b a63c 97dd c1bd 2063 a7bd
000002f0: 00f4 0bb9 4638 613d 4d5d ab3d 66f2 563d
00000300: 6030 76bd f81a f8bc 6c24 c1bc 1839 a2bc
00000310: 9df8 b9bd 4125 bd3d 7aa6 3cbd b9b9 b83d
00000320: 35cf cb3c f698 073b 5b05 663d f25e 7e3d
00000330: 4e84 6f3d 2d8b 70bd 6f42 cabd 2de6 99bd
00000340: ec22 04bd 1e43 763c ba84 57bd ba5e 3d3d
00000350: 0607 f4bc 8060 3e3c b6ed 4c3d f129 893d
00000360: 836d c73d 20aa bcbd eb7b a33d 984f cabd
00000370: c080 d93d 988c af3c 4f84 663d 5544 09bc
00000380: e24f 83bd 36ec a13d a236 cd3c 5f2c 8f3d
00000390: ecf5 a63d 0be9 8cb9 cdee 393d f841 debd
000003a0: 8138 28bd 5614 07bd 3973 ec3c 1fb2 e23c
000003b0: 00ff 6cbb fcc9 913c 89f9 9a3d 3c95 10bd
000003c0: 4c41 cd3c db5d c5bd 8140 cdbc 3dac 96bd
000003d0: b9a7 a5bd ff21 5fbd 2af9 5bbd d44a a23c
000003e0: 5027 9d3d 1c16 863a bf4f c7bd 3111 923d
000003f0: 6451 01bd ee40 54bd 04db 64bd 98a6 78bd
-0.047112275 -0.099000685 -0.026473165 0.0044955015 -0.09714496 -0.0014331937 -0.045011558 0.01781857
0.021211147 -0.09229536 -0.08287641 -0.050166573 0.0010338202 0.0917455 -0.037393168 0.075964816
0.06844539 -0.012938462 0.04817439 -0.03743293 -0.03413628 0.08523407 0.057712264 -0.051323008
0.03502538 -0.07667655 0.032215647 -0.06995139 -0.07064346 0.028325327 -0.028257526 -0.058190692
0.02077528 -0.06023425 -0.03349386 -0.05337088 0.050904952 -0.056433644 -0.03370396 0.057712458
-0.0068499222 0.015088022 -0.019604765 -0.028920397 -0.081416905 0.027030356 -0.08678051 0.03285437
-0.04754852 0.061697908 0.010404646 -0.05370885 -0.08880842 -0.07013093 0.066966586 -0.08992114
-0.026125029 -0.069878206 0.0866319 -0.025380358 -0.043772746 0.058236293 0.008280538 0.05311937
0.08574063 -0.08456898 -0.029304028 0.0020096526 -0.055627026 -0.06852037 0.0076447725 0.0099015385
0.03229592 -0.09954307 -0.080748186 0.03054776 -0.099994555 0.0014342293 0.008841515 0.060231708
0.008334316 -0.098563515 -0.082008764 0.033286415 -0.025180921 -0.04685376 -0.02976314 -0.022466183
0.07123033 0.027468465 0.08345061 0.078406386 0.015099123 0.010494277 0.091791146 -0.019974843
0.09479386 -0.027701974 0.028579362 0.064442284 0.087876074 -0.036195315 -0.05362282 -0.019625798
0.030109443 -0.0709552 -0.06395675 -0.09141433 0.07436945 -0.030011393 -0.045538843 0.07775699
-0.004893683 -0.061280847 -0.056538273 -0.060422458 -0.053466417 -0.012996718 0.068033986 0.05166308
0.0003811717 -0.050461758 -0.051213205 0.05025343 -0.092882566 0.013564751 -0.07835297 0.048586704
0.027392752 0.07075823 -0.04574846 0.095769174 0.018187031 -0.093232706 -0.0745193 -0.005389318
0.029380836 -0.036979474 0.0892948 -0.055842172 0.0036322102 0.03739614 0.0019043088 -0.021226749
0.07647691 -0.004892908 0.073489405 0.03171047 0.038057856 0.08457405 0.051564552 0.06562162
0.043174468 -0.056907583 -0.018010989 -0.04304112 -0.03380342 0.049605362 -0.046785522 0.045511074
0.030925028 -0.019926146 -0.048010208 0.0066419095 -0.04885838 -0.071954705 -0.060355045 -0.09768068
-0.078841664 -0.04306824 0.025969692 0.08256752 0.0820267 -0.020707294 0.035432063 -0.0054240823
0.04274165 -0.04659307 -0.0433903 -0.047297683 -0.09698317 -0.079671524 -0.02266661 0.03581009
-0.017144598 0.02027683 -0.09466093 -0.081732035 -0.0001334697 0.054985307 0.08367405 0.052477263
-0.060104728 -0.030286297 -0.023576938 -0.019802615 -0.09080622 0.09235621 -0.046057202 0.09019799
0.024879077 0.0020690537 0.05615745 0.062102266 0.058475785 -0.05872648 -0.098759525 -0.07514606
-0.032259867 0.01503065 -0.052616812 0.046232916 -0.029788505 0.011619687 0.050031386 0.06697453
0.097376846 -0.09212136 0.0798262 -0.098784626 0.1062026 0.021429345 0.056278523 -0.008378108
-0.06411721 0.07906382 0.025050465 0.06990885 0.081523746 -0.0002687651 0.045393754 -0.10852426
-0.04106951 -0.03297838 0.028863536 0.027672825 -0.0036162734 0.017796509 0.07567126 -0.03529857
0.02505555 -0.09637042 -0.025055172 -0.073570706 -0.08088631 -0.05447578 -0.05370442 0.019811071
0.07673514 0.0010229978 -0.09732007 0.07132185 -0.03157176 -0.051819734 -0.055872932 -0.06070575

fc2.bias f4 [50]
00000000: 2a3b 083d 744c 12bd 6cc1 823d 5307 3fbd
00000010: 0e10 c7bd 58ce 373c a094 81bc d12e 883d
00000020: 0280 383d 1912 9e3d a301 99bd d594 c5bd
00000030: 3180 28bd 9c9e 113d a96e a53d 0f97 453c
00000040: c3a2 6fbd 3595 cf3d 8c48 bdbd 26f3 273d
00000050: 5b0c 23bd 7d5f 4cbd 2ffc 023e bcf9 6a3d
00000060: 4dc6 f93c 1b27 b1bd d43f 52bc 432f 053d
00000070: 2f38 823d 42d3 95bc c2c0 c0bd 009a a3bc
00000080: 96a7 783d 5d4d 70bd c0d6 803d 3af9 0bbd
00000090: e5e0 fd3d 4feb 99bd 9682 89bd 5240 503d
000000a0: 729c 373d eae2 43bd 730b 3fbd 7d08 343d
000000b0: b752 c8bd 93a6 803d 2593 183d 4e6e 883c
000000c0: 72bd 01be 3733 dd3d
0.03325955 -0.035717443 0.063845485 -0.046637844 -0.09719859 0.01121863 -0.01581794 0.066495545
0.045043953 0.077182956 -0.07471015 -0.09647528 -0.041137878 0.035551652 0.080777474 0.012059941
-0.05850483 0.10135881 -0.09242353 0.04100337 -0.039806705 -0.049895752 0.12791513 0.05736707
0.030490065 -0.08650037 -0.012832601 0.032515775 0.063583724 -0.018289212 -0.09411766 -0.019970894
0.060706697 -0.05866753 0.0629096 -0.034173228 0.12396411 -0.07515585 -0.067143604 0.05084259
0.044826932 -0.047823824 -0.04664178 0.043953408 -0.097814016 0.062817715 0.037249703 0.01665416
-0.12669924 0.10800784

fc3.weight f4 [3, 50]
00000000: 5c8e 513d 802c 34bc 18cd 21be 752f b5bd
00000010: 6bae 87be 4883 4a3d 0838 eebc 8658 1cbd
00000020: 8ce4 0cbe 1078 5fbc 9813 b33d 790e d03c
00000030: 2166 abbe 6265 0d3e d81d eb3c cc62 b8be
00000040: a9ed 303e 040d 8e3e 32e7 e9bd 0efc 03bd
00000050: 397b cf3d ee59 fa3d a09b 0c3e 495f 9dbd
00000060: e774 75bb 8f2f 90be 3081 42be 2c8d abbe
00000070: 9b8a 59bd 51e1 013d 10b5 a53d 4471 aebc
00000080: a06d ab3c 460b 90be ce6c b13e 74f0 633d
00000090: b2ef ac3e 5fca 003e 6d14 b1be c0cf 0dbb
000000a0: 1681 acbe 403f 4dbb e090 363c 4523 553d
000000b0: b76e 92be dc38 173d 4f61 5a3e db8c f03e
000000c0: c517 1cbe 4011 863e 381a 103d 5499 593d
000000d0: 2047 033e dba4 be3d 9634 d63d 0094 9abb
000000e0: 58f4 1d3d 00f4 48b9 3a37 ccbd 74c0 f0bd
000000f0: ce15 c33d 097d 65bd 22de 293d 3c92 edbb
00000100: d601 923d 8fce 80bd e7ee f2bd 1801 8b3e
00000110: 6072 f13c 38b6 c6bd 4315 46bd 6662 ed3d
00000120: 8a66 7f3e 156a 083e 01d6 e13d 3110 203d
00000130: 9227 c53d ce2b cd3d aa39 da3d c450 a43d
00000140: f136 01be 871a cabd b16e ebbd e6fa 51be
00000150: 3365 263e 4072 5c3d 4c1a b53d ce7b 9a3d
00000160: 9d15 e8bd 5fbb 043e 429e ddbd 5ce3 aebd
00000170: e016 133c f4da 0f3e a716 afbd 54c9 afbd
00000180: 6ce6 20be e877 843d 8390 74be 5e50 163e
00000190: 3686 1bbd 7a7a 8a3d 32a5 e1bd b886 96bd
000001a0: 11e8 c43d 346c 69bd e2dd 0dbe 987c d43d
000001b0: b86c cfbd 8013 26bb 023c ef3d 4518 01be
000001c0: ff46 a03e f5af e6bd 26e8 ff3d f10f 183e
000001d0: c7e4 333d 432a bfbe c724 043e 37de 9cbd
000001e0: 25e9 8e3d bcdd a6bc c97f c4be b005 c13d
000001f0: d5b6 da3d c76f 853c 92f0 0fbe 3325 133e
00000200: 4c96 5e3d 81e4 853c 3484 723d 4297 963d
00000210: 1150 0e3e 0f16 ae3e f9ab b5be e990 e5bd
00000220: ff6c b7be 7731 e1bc 9313 a93e be41 3dbd
00000230: d1e5 133f 92a2 31bd 3a1a e63d cc74 8cbe
00000240: f44d 933d f026 5f3c c805 50be 4317 cbbe
00000250: a5d8 b53e 2537 8dbe
0.051161155 -0.010996938 -0.15800893 -0.08846942 -0.26500258 0.049441606 -0.029079452 -0.03817036
-0.13759059 -0.013639465 0.087439716 0.025397526 -0.33476356 0.13808206 0.028700754 -0.36012876
0.1727816 0.27744305 -0.1142105 -0.0322228 0.10130925 0.12224184 0.13731241 -0.0768419
-0.0037453712 -0.28161284 -0.18994594 -0.33506143 -0.0531107 0.03170902 0.080911756 -0.021294244
0.020926297 -0.281336 0.34653324 0.055649236 0.33776623 0.12577198 -0.34585896 -0.0021638721
-0.33692235 -0.0031318218 0.011142939 0.05203559 -0.28600094 0.03691946 0.21326183 0.46982464
-0.15243442 0.26185036 0.035181254 0.05312474 0.12820101 0.093087874 0.10459249 -0.00471735
0.038563102 -0.00019164383 -0.09971471 -0.117554575 0.09525643 -0.056027446 0.041471608 -0.0072500985
0.071292564 -0.06289398 -0.11861973 0.27149272 0.029473484 -0.09702724 -0.04836012 0.11591034
0.2494146 0.13321717 0.11027146 0.03907794 0.09626688 0.10018121 0.1065553 0.08023217
-0.12618615 -0.09868341 -0.11495722 -0.20505866 0.16249542 0.053819895 0.08842906 0.07543145
-0.113322474 0.12962101 -0.10821201 -0.08539459 0.008977622 0.14048368 -0.085492425 -0.08583322
-0.15712899 0.06468183 -0.23883252 0.14679095 -0.03796979 0.06761642 -0.11017837 -0.07349914
0.09614576 -0.056987956 -0.13854173 0.10375327 -0.10128158 -0.0025341213 0.116813675 -0.12606914
0.31304166 -0.1126403 0.12495451 0.14849831 0.04391935 -0.3733693 0.12904654 -0.076595716
0.069780625 -0.020369403 -0.38378742 0.09424913 0.10679404 0.016288651 -0.14056614 0.14369659
0.054342553 0.01634431 0.05920811 0.07353069 0.1389773 0.34001204 -0.35482767 -0.1120928
-0.35825345 -0.027489407 0.33022746 -0.046205275 0.57772547 -0.04336793 0.11235471 -0.2743286
0.07192603 0.013620123 -0.20314705 -0.39666185 0.3551685 -0.27581134

fc3.bias f4 [3]
00000000: bab7 21bd 3730 173d e2ed 3ebb
-0.039481856 0.036911216 -0.0029133488
